2024-06-09 20:51:07,820:WARNING : Warning: visualization (Tensorboard) is configured to use, but currently not installed on this machine. Please install TensorboardX with 'pip install tensorboardx', upgrade PyTorch to version >= 1.1 to use 'torch.utils.tensorboard' or turn off the option in the 'config.json' file.
2024-06-09 20:51:07,867:INFO : ConvNet(
  (layers): Sequential(
    (0): Conv2d(3, 128, kernel_size=(3, 3), stride=(1, 1), padding=same)
    (1): BatchNorm2d(128, eps=1e-05, momentum=0.1, affine=True, track_running_stats=True)
    (2): ReLU()
    (3): MaxPool2d(kernel_size=2, stride=2, padding=0, dilation=1, ceil_mode=False)
    (4): Dropout2d(p=0.0, inplace=False)
    (5): Conv2d(128, 512, kernel_size=(3, 3), stride=(1, 1), padding=same)
    (6): BatchNorm2d(512, eps=1e-05, momentum=0.1, affine=True, track_running_stats=True)
    (7): ReLU()
    (8): MaxPool2d(kernel_size=2, stride=2, padding=0, dilation=1, ceil_mode=False)
    (9): Dropout2d(p=0.0, inplace=False)
    (10): Conv2d(512, 512, kernel_size=(3, 3), stride=(1, 1), padding=same)
    (11): BatchNorm2d(512, eps=1e-05, momentum=0.1, affine=True, track_running_stats=True)
    (12): ReLU()
    (13): MaxPool2d(kernel_size=2, stride=2, padding=0, dilation=1, ceil_mode=False)
    (14): Dropout2d(p=0.0, inplace=False)
    (15): Conv2d(512, 512, kernel_size=(3, 3), stride=(1, 1), padding=same)
    (16): BatchNorm2d(512, eps=1e-05, momentum=0.1, affine=True, track_running_stats=True)
    (17): ReLU()
    (18): MaxPool2d(kernel_size=2, stride=2, padding=0, dilation=1, ceil_mode=False)
    (19): Dropout2d(p=0.0, inplace=False)
    (20): Conv2d(512, 512, kernel_size=(3, 3), stride=(1, 1), padding=same)
    (21): BatchNorm2d(512, eps=1e-05, momentum=0.1, affine=True, track_running_stats=True)
    (22): ReLU()
    (23): MaxPool2d(kernel_size=2, stride=2, padding=0, dilation=1, ceil_mode=False)
    (24): Dropout2d(p=0.0, inplace=False)
    (25): Flatten(start_dim=1, end_dim=-1)
    (26): Linear(in_features=512, out_features=512, bias=True)
    (27): Linear(in_features=512, out_features=10, bias=True)
  )
)
2024-06-09 20:51:07,867:INFO : ------------ New Training Session ------------
2024-06-09 20:51:07,867:DEBUG : ==> Start Training Epoch 1/50, lr=0.002000 
2024-06-09 20:51:51,257:DEBUG : ==> Finished Epoch 1/50.
2024-06-09 20:51:51,257:DEBUG : ++> Evaluate at epoch 1 ...
2024-06-09 20:52:07,832:DEBUG : ++> Finished evaluating epoch 1.
2024-06-09 20:52:07,832:INFO : Saving checkpoint: Saved\CIFAR10_CNN_q2c\best_val_model.pth ...
…
