…
2024-06-08 15:16:10,812:WARNING : Warning: visualization (Tensorboard) is configured to use, but currently not installed on this machine. Please install TensorboardX with 'pip install tensorboardx', upgrade PyTorch to version >= 1.1 to use 'torch.utils.tensorboard' or turn off the option in the 'config.json' file.
2024-06-08 15:16:26,529:WARNING : Warning: visualization (Tensorboard) is configured to use, but currently not installed on this machine. Please install TensorboardX with 'pip install tensorboardx', upgrade PyTorch to version >= 1.1 to use 'torch.utils.tensorboard' or turn off the option in the 'config.json' file.
2024-06-08 15:16:31,444:INFO : ConvNet(
  (layers): Sequential(
    (0): Conv2d(3, 128, kernel_size=(3, 3), stride=(1, 1), padding=same)
    (1): Identity()
    (2): ReLU()
    (3): MaxPool2d(kernel_size=2, stride=2, padding=0, dilation=1, ceil_mode=False)
    (4): Dropout2d(p=0.0, inplace=False)
    (5): Conv2d(128, 512, kernel_size=(3, 3), stride=(1, 1), padding=same)
    (6): Identity()
    (7): ReLU()
    (8): MaxPool2d(kernel_size=2, stride=2, padding=0, dilation=1, ceil_mode=False)
    (9): Dropout2d(p=0.0, inplace=False)
    (10): Conv2d(512, 512, kernel_size=(3, 3), stride=(1, 1), padding=same)
    (11): Identity()
    (12): ReLU()
    (13): MaxPool2d(kernel_size=2, stride=2, padding=0, dilation=1, ceil_mode=False)
    (14): Dropout2d(p=0.0, inplace=False)
    (15): Conv2d(512, 512, kernel_size=(3, 3), stride=(1, 1), padding=same)
    (16): Identity()
    (17): ReLU()
    (18): MaxPool2d(kernel_size=2, stride=2, padding=0, dilation=1, ceil_mode=False)
    (19): Dropout2d(p=0.0, inplace=False)
    (20): Conv2d(512, 512, kernel_size=(3, 3), stride=(1, 1), padding=same)
    (21): Identity()
    (22): ReLU()
    (23): MaxPool2d(kernel_size=2, stride=2, padding=0, dilation=1, ceil_mode=False)
    (24): Dropout2d(p=0.0, inplace=False)
    (25): Conv2d(512, 512, kernel_size=(3, 3), stride=(1, 1), padding=same)
    (26): Identity()
    (27): ReLU()
    (28): MaxPool2d(kernel_size=2, stride=2, padding=0, dilation=1, ceil_mode=False)
    (29): Dropout2d(p=0.0, inplace=False)
    (30): Linear(in_features=512, out_features=512, bias=True)
    (31): Linear(in_features=512, out_features=10, bias=True)
  )
)
2024-06-08 15:16:31,555:INFO : Loading checkpoint: ./Saved/CIFAR10_CNN/last_model.pth ...
2024-06-08 15:17:51,238:WARNING : Warning: visualization (Tensorboard) is configured to use, but currently not installed on this machine. Please install TensorboardX with 'pip install tensorboardx', upgrade PyTorch to version >= 1.1 to use 'torch.utils.tensorboard' or turn off the option in the 'config.json' file.
2024-06-08 15:17:51,310:INFO : ConvNet(
  (layers): Sequential(
    (0): Conv2d(3, 3, kernel_size=(3, 3), stride=(1, 1), padding=same)
    (1): Identity()
    (2): ReLU()
    (3): MaxPool2d(kernel_size=2, stride=2, padding=0, dilation=1, ceil_mode=False)
    (4): Dropout2d(p=0.0, inplace=False)
    (5): Conv2d(3, 128, kernel_size=(3, 3), stride=(1, 1), padding=same)
    (6): Identity()
    (7): ReLU()
    (8): MaxPool2d(kernel_size=2, stride=2, padding=0, dilation=1, ceil_mode=False)
    (9): Dropout2d(p=0.0, inplace=False)
    (10): Conv2d(128, 512, kernel_size=(3, 3), stride=(1, 1), padding=same)
    (11): Identity()
    (12): ReLU()
    (13): MaxPool2d(kernel_size=2, stride=2, padding=0, dilation=1, ceil_mode=False)
    (14): Dropout2d(p=0.0, inplace=False)
    (15): Conv2d(512, 512, kernel_size=(3, 3), stride=(1, 1), padding=same)
    (16): Identity()
    (17): ReLU()
    (18): MaxPool2d(kernel_size=2, stride=2, padding=0, dilation=1, ceil_mode=False)
    (19): Dropout2d(p=0.0, inplace=False)
    (20): Conv2d(512, 512, kernel_size=(3, 3), stride=(1, 1), padding=same)
    (21): Identity()
    (22): ReLU()
    (23): MaxPool2d(kernel_size=2, stride=2, padding=0, dilation=1, ceil_mode=False)
    (24): Dropout2d(p=0.0, inplace=False)
    (25): Conv2d(512, 512, kernel_size=(3, 3), stride=(1, 1), padding=same)
    (26): Identity()
    (27): ReLU()
    (28): MaxPool2d(kernel_size=2, stride=2, padding=0, dilation=1, ceil_mode=False)
    (29): Dropout2d(p=0.0, inplace=False)
    (30): Conv2d(512, 512, kernel_size=(3, 3), stride=(1, 1), padding=same)
    (31): Identity()
    (32): ReLU()
    (33): MaxPool2d(kernel_size=2, stride=2, padding=0, dilation=1, ceil_mode=False)
    (34): Dropout2d(p=0.0, inplace=False)
    (35): Linear(in_features=512, out_features=512, bias=True)
    (36): Linear(in_features=512, out_features=10, bias=True)
  )
)
2024-06-08 15:18:00,833:WARNING : Warning: visualization (Tensorboard) is configured to use, but currently not installed on this machine. Please install TensorboardX with 'pip install tensorboardx', upgrade PyTorch to version >= 1.1 to use 'torch.utils.tensorboard' or turn off the option in the 'config.json' file.
2024-06-08 15:18:00,909:INFO : ConvNet(
  (layers): Sequential(
    (0): Conv2d(3, 3, kernel_size=(3, 3), stride=(1, 1), padding=same)
    (1): Identity()
    (2): ReLU()
    (3): MaxPool2d(kernel_size=2, stride=2, padding=0, dilation=1, ceil_mode=False)
    (4): Dropout2d(p=0.0, inplace=False)
    (5): Conv2d(3, 3, kernel_size=(3, 3), stride=(1, 1), padding=same)
    (6): Identity()
    (7): ReLU()
    (8): MaxPool2d(kernel_size=2, stride=2, padding=0, dilation=1, ceil_mode=False)
    (9): Dropout2d(p=0.0, inplace=False)
    (10): Conv2d(3, 128, kernel_size=(3, 3), stride=(1, 1), padding=same)
    (11): Identity()
    (12): ReLU()
    (13): MaxPool2d(kernel_size=2, stride=2, padding=0, dilation=1, ceil_mode=False)
    (14): Dropout2d(p=0.0, inplace=False)
    (15): Conv2d(128, 512, kernel_size=(3, 3), stride=(1, 1), padding=same)
    (16): Identity()
    (17): ReLU()
    (18): MaxPool2d(kernel_size=2, stride=2, padding=0, dilation=1, ceil_mode=False)
    (19): Dropout2d(p=0.0, inplace=False)
    (20): Conv2d(512, 512, kernel_size=(3, 3), stride=(1, 1), padding=same)
    (21): Identity()
    (22): ReLU()
    (23): MaxPool2d(kernel_size=2, stride=2, padding=0, dilation=1, ceil_mode=False)
    (24): Dropout2d(p=0.0, inplace=False)
    (25): Conv2d(512, 512, kernel_size=(3, 3), stride=(1, 1), padding=same)
    (26): Identity()
    (27): ReLU()
    (28): MaxPool2d(kernel_size=2, stride=2, padding=0, dilation=1, ceil_mode=False)
    (29): Dropout2d(p=0.0, inplace=False)
    (30): Conv2d(512, 512, kernel_size=(3, 3), stride=(1, 1), padding=same)
    (31): Identity()
    (32): ReLU()
    (33): MaxPool2d(kernel_size=2, stride=2, padding=0, dilation=1, ceil_mode=False)
    (34): Dropout2d(p=0.0, inplace=False)
    (35): Conv2d(512, 512, kernel_size=(3, 3), stride=(1, 1), padding=same)
    (36): Identity()
    (37): ReLU()
    (38): MaxPool2d(kernel_size=2, stride=2, padding=0, dilation=1, ceil_mode=False)
    (39): Dropout2d(p=0.0, inplace=False)
    (40): Linear(in_features=512, out_features=512, bias=True)
    (41): Linear(in_features=512, out_features=10, bias=True)
  )
)
2024-06-08 15:18:00,909:INFO : ------------ New Training Session ------------
2024-06-08 15:18:00,909:DEBUG : ==> Start Training Epoch 1/10, lr=0.002000 
2024-06-08 15:21:14,574:WARNING : Warning: visualization (Tensorboard) is configured to use, but currently not installed on this machine. Please install TensorboardX with 'pip install tensorboardx', upgrade PyTorch to version >= 1.1 to use 'torch.utils.tensorboard' or turn off the option in the 'config.json' file.
2024-06-08 15:21:16,725:INFO : ConvNet(
  (layers): Sequential(
    (0): Conv2d(3, 128, kernel_size=(3, 3), stride=(1, 1), padding=same)
    (1): Identity()
    (2): ReLU()
    (3): MaxPool2d(kernel_size=2, stride=2, padding=0, dilation=1, ceil_mode=False)
    (4): Dropout2d(p=0.0, inplace=False)
    (5): Conv2d(128, 512, kernel_size=(3, 3), stride=(1, 1), padding=same)
    (6): Identity()
    (7): ReLU()
    (8): MaxPool2d(kernel_size=2, stride=2, padding=0, dilation=1, ceil_mode=False)
    (9): Dropout2d(p=0.0, inplace=False)
    (10): Conv2d(512, 512, kernel_size=(3, 3), stride=(1, 1), padding=same)
    (11): Identity()
    (12): ReLU()
    (13): MaxPool2d(kernel_size=2, stride=2, padding=0, dilation=1, ceil_mode=False)
    (14): Dropout2d(p=0.0, inplace=False)
    (15): Conv2d(512, 512, kernel_size=(3, 3), stride=(1, 1), padding=same)
    (16): Identity()
    (17): ReLU()
    (18): MaxPool2d(kernel_size=2, stride=2, padding=0, dilation=1, ceil_mode=False)
    (19): Dropout2d(p=0.0, inplace=False)
    (20): Conv2d(512, 512, kernel_size=(3, 3), stride=(1, 1), padding=same)
    (21): Identity()
    (22): ReLU()
    (23): MaxPool2d(kernel_size=2, stride=2, padding=0, dilation=1, ceil_mode=False)
    (24): Dropout2d(p=0.0, inplace=False)
    (25): Conv2d(512, 512, kernel_size=(3, 3), stride=(1, 1), padding=same)
    (26): Identity()
    (27): ReLU()
    (28): MaxPool2d(kernel_size=2, stride=2, padding=0, dilation=1, ceil_mode=False)
    (29): Dropout2d(p=0.0, inplace=False)
    (30): Linear(in_features=512, out_features=512, bias=True)
    (31): Linear(in_features=512, out_features=10, bias=True)
  )
)
2024-06-08 15:21:16,725:INFO : ------------ New Training Session ------------
2024-06-08 15:21:16,725:DEBUG : ==> Start Training Epoch 1/10, lr=0.002000 
2024-06-08 15:29:08,309:WARNING : Warning: visualization (Tensorboard) is configured to use, but currently not installed on this machine. Please install TensorboardX with 'pip install tensorboardx', upgrade PyTorch to version >= 1.1 to use 'torch.utils.tensorboard' or turn off the option in the 'config.json' file.
2024-06-08 15:30:25,948:INFO : ConvNet(
  (layers): Sequential(
    (0): Conv2d(3, 3, kernel_size=(3, 3), stride=(1, 1), padding=same)
    (1): Identity()
    (2): ReLU()
    (3): MaxPool2d(kernel_size=2, stride=2, padding=0, dilation=1, ceil_mode=False)
    (4): Dropout2d(p=0.0, inplace=False)
    (5): Conv2d(3, 128, kernel_size=(3, 3), stride=(1, 1), padding=same)
    (6): Identity()
    (7): ReLU()
    (8): MaxPool2d(kernel_size=2, stride=2, padding=0, dilation=1, ceil_mode=False)
    (9): Dropout2d(p=0.0, inplace=False)
    (10): Conv2d(128, 512, kernel_size=(3, 3), stride=(1, 1), padding=same)
    (11): Identity()
    (12): ReLU()
    (13): MaxPool2d(kernel_size=2, stride=2, padding=0, dilation=1, ceil_mode=False)
    (14): Dropout2d(p=0.0, inplace=False)
    (15): Conv2d(512, 512, kernel_size=(3, 3), stride=(1, 1), padding=same)
    (16): Identity()
    (17): ReLU()
    (18): MaxPool2d(kernel_size=2, stride=2, padding=0, dilation=1, ceil_mode=False)
    (19): Dropout2d(p=0.0, inplace=False)
    (20): Conv2d(512, 512, kernel_size=(3, 3), stride=(1, 1), padding=same)
    (21): Identity()
    (22): ReLU()
    (23): MaxPool2d(kernel_size=2, stride=2, padding=0, dilation=1, ceil_mode=False)
    (24): Dropout2d(p=0.0, inplace=False)
    (25): Conv2d(512, 512, kernel_size=(3, 3), stride=(1, 1), padding=same)
    (26): Identity()
    (27): ReLU()
    (28): MaxPool2d(kernel_size=2, stride=2, padding=0, dilation=1, ceil_mode=False)
    (29): Dropout2d(p=0.0, inplace=False)
    (30): Conv2d(512, 512, kernel_size=(3, 3), stride=(1, 1), padding=same)
    (31): Identity()
    (32): ReLU()
    (33): MaxPool2d(kernel_size=2, stride=2, padding=0, dilation=1, ceil_mode=False)
    (34): Dropout2d(p=0.0, inplace=False)
    (35): Linear(in_features=512, out_features=512, bias=True)
    (36): Linear(in_features=512, out_features=10, bias=True)
  )
)
2024-06-08 15:30:25,952:INFO : ------------ New Training Session ------------
2024-06-08 15:30:25,952:DEBUG : ==> Start Training Epoch 1/10, lr=0.002000 
2024-06-08 15:31:11,180:WARNING : Warning: visualization (Tensorboard) is configured to use, but currently not installed on this machine. Please install TensorboardX with 'pip install tensorboardx', upgrade PyTorch to version >= 1.1 to use 'torch.utils.tensorboard' or turn off the option in the 'config.json' file.
2024-06-08 15:31:23,186:INFO : ConvNet(
  (layers): Sequential(
    (0): Conv2d(128, 512, kernel_size=(3, 3), stride=(1, 1), padding=same)
    (1): Identity()
    (2): ReLU()
    (3): MaxPool2d(kernel_size=2, stride=2, padding=0, dilation=1, ceil_mode=False)
    (4): Dropout2d(p=0.0, inplace=False)
    (5): Conv2d(512, 512, kernel_size=(3, 3), stride=(1, 1), padding=same)
    (6): Identity()
    (7): ReLU()
    (8): MaxPool2d(kernel_size=2, stride=2, padding=0, dilation=1, ceil_mode=False)
    (9): Dropout2d(p=0.0, inplace=False)
    (10): Conv2d(512, 512, kernel_size=(3, 3), stride=(1, 1), padding=same)
    (11): Identity()
    (12): ReLU()
    (13): MaxPool2d(kernel_size=2, stride=2, padding=0, dilation=1, ceil_mode=False)
    (14): Dropout2d(p=0.0, inplace=False)
    (15): Conv2d(512, 512, kernel_size=(3, 3), stride=(1, 1), padding=same)
    (16): Identity()
    (17): ReLU()
    (18): MaxPool2d(kernel_size=2, stride=2, padding=0, dilation=1, ceil_mode=False)
    (19): Dropout2d(p=0.0, inplace=False)
    (20): Conv2d(512, 512, kernel_size=(3, 3), stride=(1, 1), padding=same)
    (21): Identity()
    (22): ReLU()
    (23): MaxPool2d(kernel_size=2, stride=2, padding=0, dilation=1, ceil_mode=False)
    (24): Dropout2d(p=0.0, inplace=False)
    (25): Linear(in_features=512, out_features=512, bias=True)
    (26): Linear(in_features=512, out_features=10, bias=True)
  )
)
2024-06-08 15:31:23,186:INFO : ------------ New Training Session ------------
2024-06-08 15:31:23,186:DEBUG : ==> Start Training Epoch 1/10, lr=0.002000 
2024-06-08 15:31:47,272:WARNING : Warning: visualization (Tensorboard) is configured to use, but currently not installed on this machine. Please install TensorboardX with 'pip install tensorboardx', upgrade PyTorch to version >= 1.1 to use 'torch.utils.tensorboard' or turn off the option in the 'config.json' file.
2024-06-08 15:32:03,374:WARNING : Warning: visualization (Tensorboard) is configured to use, but currently not installed on this machine. Please install TensorboardX with 'pip install tensorboardx', upgrade PyTorch to version >= 1.1 to use 'torch.utils.tensorboard' or turn off the option in the 'config.json' file.
2024-06-08 15:34:25,445:INFO : ConvNet(
  (layers): Sequential(
    (0): Conv2d(3, 128, kernel_size=(3, 3), stride=(1, 1), padding=same)
    (1): Identity()
    (2): ReLU()
    (3): MaxPool2d(kernel_size=2, stride=2, padding=0, dilation=1, ceil_mode=False)
    (4): Dropout2d(p=0.0, inplace=False)
    (5): Conv2d(128, 512, kernel_size=(3, 3), stride=(1, 1), padding=same)
    (6): Identity()
    (7): ReLU()
    (8): MaxPool2d(kernel_size=2, stride=2, padding=0, dilation=1, ceil_mode=False)
    (9): Dropout2d(p=0.0, inplace=False)
    (10): Conv2d(512, 512, kernel_size=(3, 3), stride=(1, 1), padding=same)
    (11): Identity()
    (12): ReLU()
    (13): MaxPool2d(kernel_size=2, stride=2, padding=0, dilation=1, ceil_mode=False)
    (14): Dropout2d(p=0.0, inplace=False)
    (15): Conv2d(512, 512, kernel_size=(3, 3), stride=(1, 1), padding=same)
    (16): Identity()
    (17): ReLU()
    (18): MaxPool2d(kernel_size=2, stride=2, padding=0, dilation=1, ceil_mode=False)
    (19): Dropout2d(p=0.0, inplace=False)
    (20): Conv2d(512, 512, kernel_size=(3, 3), stride=(1, 1), padding=same)
    (21): Identity()
    (22): ReLU()
    (23): MaxPool2d(kernel_size=2, stride=2, padding=0, dilation=1, ceil_mode=False)
    (24): Dropout2d(p=0.0, inplace=False)
    (25): Conv2d(512, 512, kernel_size=(3, 3), stride=(1, 1), padding=same)
    (26): Identity()
    (27): ReLU()
    (28): MaxPool2d(kernel_size=2, stride=2, padding=0, dilation=1, ceil_mode=False)
    (29): Dropout2d(p=0.0, inplace=False)
    (30): Linear(in_features=512, out_features=512, bias=True)
    (31): Linear(in_features=512, out_features=10, bias=True)
  )
)
2024-06-08 15:34:25,445:INFO : ------------ New Training Session ------------
2024-06-08 15:34:25,445:DEBUG : ==> Start Training Epoch 1/10, lr=0.002000 
2024-06-08 15:42:55,761:WARNING : Warning: visualization (Tensorboard) is configured to use, but currently not installed on this machine. Please install TensorboardX with 'pip install tensorboardx', upgrade PyTorch to version >= 1.1 to use 'torch.utils.tensorboard' or turn off the option in the 'config.json' file.
2024-06-08 15:42:57,907:INFO : ConvNet(
  (layers): Sequential(
    (0): Conv2d(3, 128, kernel_size=(3, 3), stride=(1, 1), padding=same)
    (1): Identity()
    (2): ReLU()
    (3): MaxPool2d(kernel_size=2, stride=2, padding=0, dilation=1, ceil_mode=False)
    (4): Dropout2d(p=0.0, inplace=False)
    (5): Conv2d(128, 512, kernel_size=(3, 3), stride=(1, 1), padding=same)
    (6): Identity()
    (7): ReLU()
    (8): MaxPool2d(kernel_size=2, stride=2, padding=0, dilation=1, ceil_mode=False)
    (9): Dropout2d(p=0.0, inplace=False)
    (10): Conv2d(512, 512, kernel_size=(3, 3), stride=(1, 1), padding=same)
    (11): Identity()
    (12): ReLU()
    (13): MaxPool2d(kernel_size=2, stride=2, padding=0, dilation=1, ceil_mode=False)
    (14): Dropout2d(p=0.0, inplace=False)
    (15): Conv2d(512, 512, kernel_size=(3, 3), stride=(1, 1), padding=same)
    (16): Identity()
    (17): ReLU()
    (18): MaxPool2d(kernel_size=2, stride=2, padding=0, dilation=1, ceil_mode=False)
    (19): Dropout2d(p=0.0, inplace=False)
    (20): Conv2d(512, 512, kernel_size=(3, 3), stride=(1, 1), padding=same)
    (21): Identity()
    (22): ReLU()
    (23): MaxPool2d(kernel_size=2, stride=2, padding=0, dilation=1, ceil_mode=False)
    (24): Dropout2d(p=0.0, inplace=False)
    (25): Linear(in_features=512, out_features=512, bias=True)
    (26): Linear(in_features=512, out_features=10, bias=True)
  )
)
2024-06-08 15:42:57,907:INFO : ------------ New Training Session ------------
2024-06-08 15:42:57,907:DEBUG : ==> Start Training Epoch 1/10, lr=0.002000 
2024-06-08 15:49:28,985:WARNING : Warning: visualization (Tensorboard) is configured to use, but currently not installed on this machine. Please install TensorboardX with 'pip install tensorboardx', upgrade PyTorch to version >= 1.1 to use 'torch.utils.tensorboard' or turn off the option in the 'config.json' file.
2024-06-08 15:50:41,336:INFO : ConvNet(
  (layers): Sequential(
    (0): Conv2d(3, 3, kernel_size=(3, 3), stride=(1, 1), padding=same)
    (1): Identity()
    (2): ReLU()
    (3): MaxPool2d(kernel_size=2, stride=2, padding=0, dilation=1, ceil_mode=False)
    (4): Dropout2d(p=0.0, inplace=False)
    (5): Conv2d(3, 128, kernel_size=(3, 3), stride=(1, 1), padding=same)
    (6): Identity()
    (7): ReLU()
    (8): MaxPool2d(kernel_size=2, stride=2, padding=0, dilation=1, ceil_mode=False)
    (9): Dropout2d(p=0.0, inplace=False)
    (10): Conv2d(128, 512, kernel_size=(3, 3), stride=(1, 1), padding=same)
    (11): Identity()
    (12): ReLU()
    (13): MaxPool2d(kernel_size=2, stride=2, padding=0, dilation=1, ceil_mode=False)
    (14): Dropout2d(p=0.0, inplace=False)
    (15): Conv2d(512, 512, kernel_size=(3, 3), stride=(1, 1), padding=same)
    (16): Identity()
    (17): ReLU()
    (18): MaxPool2d(kernel_size=2, stride=2, padding=0, dilation=1, ceil_mode=False)
    (19): Dropout2d(p=0.0, inplace=False)
    (20): Conv2d(512, 512, kernel_size=(3, 3), stride=(1, 1), padding=same)
    (21): Identity()
    (22): ReLU()
    (23): MaxPool2d(kernel_size=2, stride=2, padding=0, dilation=1, ceil_mode=False)
    (24): Dropout2d(p=0.0, inplace=False)
    (25): Conv2d(512, 512, kernel_size=(3, 3), stride=(1, 1), padding=same)
    (26): Identity()
    (27): ReLU()
    (28): MaxPool2d(kernel_size=2, stride=2, padding=0, dilation=1, ceil_mode=False)
    (29): Dropout2d(p=0.0, inplace=False)
    (30): Linear(in_features=512, out_features=512, bias=True)
    (31): Linear(in_features=512, out_features=10, bias=True)
  )
)
2024-06-08 15:52:05,740:INFO : ------------ New Training Session ------------
2024-06-08 15:52:05,740:DEBUG : ==> Start Training Epoch 1/10, lr=0.002000 
2024-06-08 15:54:11,329:ERROR : SEND Error: Host unreachable
2024-06-08 15:58:45,186:WARNING : Warning: visualization (Tensorboard) is configured to use, but currently not installed on this machine. Please install TensorboardX with 'pip install tensorboardx', upgrade PyTorch to version >= 1.1 to use 'torch.utils.tensorboard' or turn off the option in the 'config.json' file.
2024-06-08 15:59:06,430:INFO : ConvNet(
  (layers): Sequential(
    (0): Conv2d(3, 128, kernel_size=(3, 3), stride=(1, 1), padding=same)
    (1): Identity()
    (2): ReLU()
    (3): MaxPool2d(kernel_size=2, stride=2, padding=0, dilation=1, ceil_mode=False)
    (4): Dropout2d(p=0.0, inplace=False)
    (5): Conv2d(128, 512, kernel_size=(3, 3), stride=(1, 1), padding=same)
    (6): Identity()
    (7): ReLU()
    (8): MaxPool2d(kernel_size=2, stride=2, padding=0, dilation=1, ceil_mode=False)
    (9): Dropout2d(p=0.0, inplace=False)
    (10): Conv2d(512, 512, kernel_size=(3, 3), stride=(1, 1), padding=same)
    (11): Identity()
    (12): ReLU()
    (13): MaxPool2d(kernel_size=2, stride=2, padding=0, dilation=1, ceil_mode=False)
    (14): Dropout2d(p=0.0, inplace=False)
    (15): Conv2d(512, 512, kernel_size=(3, 3), stride=(1, 1), padding=same)
    (16): Identity()
    (17): ReLU()
    (18): MaxPool2d(kernel_size=2, stride=2, padding=0, dilation=1, ceil_mode=False)
    (19): Dropout2d(p=0.0, inplace=False)
    (20): Conv2d(512, 512, kernel_size=(3, 3), stride=(1, 1), padding=same)
    (21): Identity()
    (22): ReLU()
    (23): MaxPool2d(kernel_size=2, stride=2, padding=0, dilation=1, ceil_mode=False)
    (24): Dropout2d(p=0.0, inplace=False)
    (25): Linear(in_features=512, out_features=512, bias=True)
    (26): Linear(in_features=512, out_features=10, bias=True)
  )
)
2024-06-08 15:59:10,592:INFO : ------------ New Training Session ------------
2024-06-08 15:59:19,872:DEBUG : ==> Start Training Epoch 1/10, lr=0.002000 
2024-06-08 16:00:41,799:ERROR : SEND Error: Host unreachable
2024-06-08 16:01:59,396:WARNING : Warning: visualization (Tensorboard) is configured to use, but currently not installed on this machine. Please install TensorboardX with 'pip install tensorboardx', upgrade PyTorch to version >= 1.1 to use 'torch.utils.tensorboard' or turn off the option in the 'config.json' file.
2024-06-08 16:02:01,490:INFO : ConvNet(
  (layers): Sequential(
    (0): Conv2d(3, 128, kernel_size=(3, 3), stride=(1, 1), padding=same)
    (1): Identity()
    (2): ReLU()
    (3): MaxPool2d(kernel_size=2, stride=2, padding=0, dilation=1, ceil_mode=False)
    (4): Dropout2d(p=0.0, inplace=False)
    (5): Conv2d(128, 512, kernel_size=(3, 3), stride=(1, 1), padding=same)
    (6): Identity()
    (7): ReLU()
    (8): MaxPool2d(kernel_size=2, stride=2, padding=0, dilation=1, ceil_mode=False)
    (9): Dropout2d(p=0.0, inplace=False)
    (10): Conv2d(512, 512, kernel_size=(3, 3), stride=(1, 1), padding=same)
    (11): Identity()
    (12): ReLU()
    (13): MaxPool2d(kernel_size=2, stride=2, padding=0, dilation=1, ceil_mode=False)
    (14): Dropout2d(p=0.0, inplace=False)
    (15): Conv2d(512, 512, kernel_size=(3, 3), stride=(1, 1), padding=same)
    (16): Identity()
    (17): ReLU()
    (18): MaxPool2d(kernel_size=2, stride=2, padding=0, dilation=1, ceil_mode=False)
    (19): Dropout2d(p=0.0, inplace=False)
    (20): Conv2d(512, 512, kernel_size=(3, 3), stride=(1, 1), padding=same)
    (21): Identity()
    (22): ReLU()
    (23): MaxPool2d(kernel_size=2, stride=2, padding=0, dilation=1, ceil_mode=False)
    (24): Dropout2d(p=0.0, inplace=False)
    (25): Linear(in_features=512, out_features=512, bias=True)
    (26): Linear(in_features=512, out_features=10, bias=True)
  )
)
2024-06-08 16:02:01,490:INFO : ------------ New Training Session ------------
2024-06-08 16:02:01,490:DEBUG : ==> Start Training Epoch 1/10, lr=0.002000 
2024-06-08 16:02:43,691:WARNING : Warning: visualization (Tensorboard) is configured to use, but currently not installed on this machine. Please install TensorboardX with 'pip install tensorboardx', upgrade PyTorch to version >= 1.1 to use 'torch.utils.tensorboard' or turn off the option in the 'config.json' file.
2024-06-08 16:02:43,754:INFO : ConvNet(
  (layers): Sequential(
    (0): Conv2d(3, 3, kernel_size=(3, 3), stride=(1, 1), padding=same)
    (1): Identity()
    (2): ReLU()
    (3): MaxPool2d(kernel_size=2, stride=2, padding=0, dilation=1, ceil_mode=False)
    (4): Dropout2d(p=0.0, inplace=False)
    (5): Conv2d(3, 128, kernel_size=(3, 3), stride=(1, 1), padding=same)
    (6): Identity()
    (7): ReLU()
    (8): MaxPool2d(kernel_size=2, stride=2, padding=0, dilation=1, ceil_mode=False)
    (9): Dropout2d(p=0.0, inplace=False)
    (10): Conv2d(128, 512, kernel_size=(3, 3), stride=(1, 1), padding=same)
    (11): Identity()
    (12): ReLU()
    (13): MaxPool2d(kernel_size=2, stride=2, padding=0, dilation=1, ceil_mode=False)
    (14): Dropout2d(p=0.0, inplace=False)
    (15): Conv2d(512, 512, kernel_size=(3, 3), stride=(1, 1), padding=same)
    (16): Identity()
    (17): ReLU()
    (18): MaxPool2d(kernel_size=2, stride=2, padding=0, dilation=1, ceil_mode=False)
    (19): Dropout2d(p=0.0, inplace=False)
    (20): Conv2d(512, 512, kernel_size=(3, 3), stride=(1, 1), padding=same)
    (21): Identity()
    (22): ReLU()
    (23): MaxPool2d(kernel_size=2, stride=2, padding=0, dilation=1, ceil_mode=False)
    (24): Dropout2d(p=0.0, inplace=False)
    (25): Conv2d(512, 512, kernel_size=(3, 3), stride=(1, 1), padding=same)
    (26): Identity()
    (27): ReLU()
    (28): MaxPool2d(kernel_size=2, stride=2, padding=0, dilation=1, ceil_mode=False)
    (29): Dropout2d(p=0.0, inplace=False)
    (30): Linear(in_features=512, out_features=512, bias=True)
    (31): Linear(in_features=512, out_features=10, bias=True)
  )
)
2024-06-08 16:02:43,756:INFO : ------------ New Training Session ------------
2024-06-08 16:02:43,757:DEBUG : ==> Start Training Epoch 1/10, lr=0.002000 
2024-06-08 16:03:42,329:ERROR : SEND Error: Host unreachable
2024-06-08 16:04:41,129:WARNING : Warning: visualization (Tensorboard) is configured to use, but currently not installed on this machine. Please install TensorboardX with 'pip install tensorboardx', upgrade PyTorch to version >= 1.1 to use 'torch.utils.tensorboard' or turn off the option in the 'config.json' file.
2024-06-08 16:04:43,274:INFO : ConvNet(
  (layers): Sequential(
    (0): Conv2d(3, 128, kernel_size=(3, 3), stride=(1, 1), padding=same)
    (1): Identity()
    (2): ReLU()
    (3): MaxPool2d(kernel_size=2, stride=2, padding=0, dilation=1, ceil_mode=False)
    (4): Dropout2d(p=0.0, inplace=False)
    (5): Conv2d(128, 512, kernel_size=(3, 3), stride=(1, 1), padding=same)
    (6): Identity()
    (7): ReLU()
    (8): MaxPool2d(kernel_size=2, stride=2, padding=0, dilation=1, ceil_mode=False)
    (9): Dropout2d(p=0.0, inplace=False)
    (10): Conv2d(512, 512, kernel_size=(3, 3), stride=(1, 1), padding=same)
    (11): Identity()
    (12): ReLU()
    (13): MaxPool2d(kernel_size=2, stride=2, padding=0, dilation=1, ceil_mode=False)
    (14): Dropout2d(p=0.0, inplace=False)
    (15): Conv2d(512, 512, kernel_size=(3, 3), stride=(1, 1), padding=same)
    (16): Identity()
    (17): ReLU()
    (18): MaxPool2d(kernel_size=2, stride=2, padding=0, dilation=1, ceil_mode=False)
    (19): Dropout2d(p=0.0, inplace=False)
    (20): Conv2d(512, 512, kernel_size=(3, 3), stride=(1, 1), padding=same)
    (21): Identity()
    (22): ReLU()
    (23): MaxPool2d(kernel_size=2, stride=2, padding=0, dilation=1, ceil_mode=False)
    (24): Dropout2d(p=0.0, inplace=False)
    (25): Linear(in_features=512, out_features=512, bias=True)
    (26): Linear(in_features=512, out_features=10, bias=True)
  )
)
2024-06-08 16:04:43,274:INFO : ------------ New Training Session ------------
2024-06-08 16:04:43,274:DEBUG : ==> Start Training Epoch 1/10, lr=0.002000 
2024-06-08 16:05:43,772:ERROR : SEND Error: Host unreachable
2024-06-08 16:06:19,285:WARNING : Warning: visualization (Tensorboard) is configured to use, but currently not installed on this machine. Please install TensorboardX with 'pip install tensorboardx', upgrade PyTorch to version >= 1.1 to use 'torch.utils.tensorboard' or turn off the option in the 'config.json' file.
2024-06-08 16:06:21,475:INFO : ConvNet(
  (layers): Sequential(
    (0): Conv2d(3, 128, kernel_size=(3, 3), stride=(1, 1), padding=same)
    (1): Identity()
    (2): ReLU()
    (3): MaxPool2d(kernel_size=2, stride=2, padding=0, dilation=1, ceil_mode=False)
    (4): Dropout2d(p=0.0, inplace=False)
    (5): Conv2d(128, 512, kernel_size=(3, 3), stride=(1, 1), padding=same)
    (6): Identity()
    (7): ReLU()
    (8): MaxPool2d(kernel_size=2, stride=2, padding=0, dilation=1, ceil_mode=False)
    (9): Dropout2d(p=0.0, inplace=False)
    (10): Conv2d(512, 512, kernel_size=(3, 3), stride=(1, 1), padding=same)
    (11): Identity()
    (12): ReLU()
    (13): MaxPool2d(kernel_size=2, stride=2, padding=0, dilation=1, ceil_mode=False)
    (14): Dropout2d(p=0.0, inplace=False)
    (15): Conv2d(512, 512, kernel_size=(3, 3), stride=(1, 1), padding=same)
    (16): Identity()
    (17): ReLU()
    (18): MaxPool2d(kernel_size=2, stride=2, padding=0, dilation=1, ceil_mode=False)
    (19): Dropout2d(p=0.0, inplace=False)
    (20): Conv2d(512, 512, kernel_size=(3, 3), stride=(1, 1), padding=same)
    (21): Identity()
    (22): ReLU()
    (23): MaxPool2d(kernel_size=2, stride=2, padding=0, dilation=1, ceil_mode=False)
    (24): Dropout2d(p=0.0, inplace=False)
    (25): Linear(in_features=512, out_features=512, bias=True)
    (26): Linear(in_features=512, out_features=10, bias=True)
  )
)
2024-06-08 16:06:21,478:INFO : ------------ New Training Session ------------
2024-06-08 16:06:21,478:DEBUG : ==> Start Training Epoch 1/10, lr=0.002000 
2024-06-08 16:43:20,391:WARNING : Warning: visualization (Tensorboard) is configured to use, but currently not installed on this machine. Please install TensorboardX with 'pip install tensorboardx', upgrade PyTorch to version >= 1.1 to use 'torch.utils.tensorboard' or turn off the option in the 'config.json' file.
2024-06-08 16:43:23,421:INFO : ConvNet(
  (layers): Sequential(
    (0): Conv2d(3, 128, kernel_size=(3, 3), stride=(1, 1), padding=same)
    (1): Identity()
    (2): ReLU()
    (3): MaxPool2d(kernel_size=2, stride=2, padding=0, dilation=1, ceil_mode=False)
    (4): Dropout2d(p=0.0, inplace=False)
    (5): Conv2d(128, 512, kernel_size=(3, 3), stride=(1, 1), padding=same)
    (6): Identity()
    (7): ReLU()
    (8): MaxPool2d(kernel_size=2, stride=2, padding=0, dilation=1, ceil_mode=False)
    (9): Dropout2d(p=0.0, inplace=False)
    (10): Conv2d(512, 512, kernel_size=(3, 3), stride=(1, 1), padding=same)
    (11): Identity()
    (12): ReLU()
    (13): MaxPool2d(kernel_size=2, stride=2, padding=0, dilation=1, ceil_mode=False)
    (14): Dropout2d(p=0.0, inplace=False)
    (15): Conv2d(512, 512, kernel_size=(3, 3), stride=(1, 1), padding=same)
    (16): Identity()
    (17): ReLU()
    (18): MaxPool2d(kernel_size=2, stride=2, padding=0, dilation=1, ceil_mode=False)
    (19): Dropout2d(p=0.0, inplace=False)
    (20): Conv2d(512, 512, kernel_size=(3, 3), stride=(1, 1), padding=same)
    (21): Identity()
    (22): ReLU()
    (23): MaxPool2d(kernel_size=2, stride=2, padding=0, dilation=1, ceil_mode=False)
    (24): Dropout2d(p=0.0, inplace=False)
    (25): Linear(in_features=512, out_features=512, bias=True)
    (26): Linear(in_features=512, out_features=10, bias=True)
  )
)
2024-06-08 16:43:23,423:INFO : ------------ New Training Session ------------
2024-06-08 16:43:23,423:DEBUG : ==> Start Training Epoch 1/10, lr=0.002000 
2024-06-09 09:37:33,787:WARNING : Warning: visualization (Tensorboard) is configured to use, but currently not installed on this machine. Please install TensorboardX with 'pip install tensorboardx', upgrade PyTorch to version >= 1.1 to use 'torch.utils.tensorboard' or turn off the option in the 'config.json' file.
2024-06-09 09:37:41,517:INFO : ConvNet(
  (layers): Sequential(
    (0): Conv2d(3, 128, kernel_size=(3, 3), stride=(1, 1), padding=same)
    (1): Identity()
    (2): ReLU()
    (3): MaxPool2d(kernel_size=2, stride=2, padding=0, dilation=1, ceil_mode=False)
    (4): Dropout2d(p=0.0, inplace=False)
    (5): Conv2d(128, 512, kernel_size=(3, 3), stride=(1, 1), padding=same)
    (6): Identity()
    (7): ReLU()
    (8): MaxPool2d(kernel_size=2, stride=2, padding=0, dilation=1, ceil_mode=False)
    (9): Dropout2d(p=0.0, inplace=False)
    (10): Conv2d(512, 512, kernel_size=(3, 3), stride=(1, 1), padding=same)
    (11): Identity()
    (12): ReLU()
    (13): MaxPool2d(kernel_size=2, stride=2, padding=0, dilation=1, ceil_mode=False)
    (14): Dropout2d(p=0.0, inplace=False)
    (15): Conv2d(512, 512, kernel_size=(3, 3), stride=(1, 1), padding=same)
    (16): Identity()
    (17): ReLU()
    (18): MaxPool2d(kernel_size=2, stride=2, padding=0, dilation=1, ceil_mode=False)
    (19): Dropout2d(p=0.0, inplace=False)
    (20): Conv2d(512, 512, kernel_size=(3, 3), stride=(1, 1), padding=same)
    (21): Identity()
    (22): ReLU()
    (23): MaxPool2d(kernel_size=2, stride=2, padding=0, dilation=1, ceil_mode=False)
    (24): Dropout2d(p=0.0, inplace=False)
    (25): Linear(in_features=512, out_features=512, bias=True)
    (26): Linear(in_features=512, out_features=10, bias=True)
  )
)
2024-06-09 09:37:41,519:INFO : ------------ New Training Session ------------
2024-06-09 09:37:41,519:DEBUG : ==> Start Training Epoch 1/10, lr=0.002000 
2024-06-09 09:41:13,745:WARNING : Warning: visualization (Tensorboard) is configured to use, but currently not installed on this machine. Please install TensorboardX with 'pip install tensorboardx', upgrade PyTorch to version >= 1.1 to use 'torch.utils.tensorboard' or turn off the option in the 'config.json' file.
2024-06-09 09:41:14,161:INFO : ConvNet(
  (layers): Sequential(
    (0): Conv2d(3, 3, kernel_size=(3, 3), stride=(1, 1), padding=same)
    (1): Identity()
    (2): ReLU()
    (3): MaxPool2d(kernel_size=2, stride=2, padding=0, dilation=1, ceil_mode=False)
    (4): Dropout2d(p=0.0, inplace=False)
    (5): Conv2d(3, 128, kernel_size=(3, 3), stride=(1, 1), padding=same)
    (6): Identity()
    (7): ReLU()
    (8): MaxPool2d(kernel_size=2, stride=2, padding=0, dilation=1, ceil_mode=False)
    (9): Dropout2d(p=0.0, inplace=False)
    (10): Conv2d(128, 512, kernel_size=(3, 3), stride=(1, 1), padding=same)
    (11): Identity()
    (12): ReLU()
    (13): MaxPool2d(kernel_size=2, stride=2, padding=0, dilation=1, ceil_mode=False)
    (14): Dropout2d(p=0.0, inplace=False)
    (15): Conv2d(512, 512, kernel_size=(3, 3), stride=(1, 1), padding=same)
    (16): Identity()
    (17): ReLU()
    (18): MaxPool2d(kernel_size=2, stride=2, padding=0, dilation=1, ceil_mode=False)
    (19): Dropout2d(p=0.0, inplace=False)
    (20): Conv2d(512, 512, kernel_size=(3, 3), stride=(1, 1), padding=same)
    (21): Identity()
    (22): ReLU()
    (23): MaxPool2d(kernel_size=2, stride=2, padding=0, dilation=1, ceil_mode=False)
    (24): Dropout2d(p=0.0, inplace=False)
    (25): Conv2d(512, 512, kernel_size=(3, 3), stride=(1, 1), padding=same)
    (26): Identity()
    (27): ReLU()
    (28): MaxPool2d(kernel_size=2, stride=2, padding=0, dilation=1, ceil_mode=False)
    (29): Dropout2d(p=0.0, inplace=False)
    (30): Linear(in_features=512, out_features=512, bias=True)
    (31): Linear(in_features=512, out_features=10, bias=True)
  )
)
2024-06-09 09:41:14,162:INFO : ------------ New Training Session ------------
2024-06-09 09:41:14,162:DEBUG : ==> Start Training Epoch 1/10, lr=0.002000 
2024-06-09 09:43:51,430:WARNING : Warning: visualization (Tensorboard) is configured to use, but currently not installed on this machine. Please install TensorboardX with 'pip install tensorboardx', upgrade PyTorch to version >= 1.1 to use 'torch.utils.tensorboard' or turn off the option in the 'config.json' file.
2024-06-09 09:44:23,391:INFO : ConvNet(
  (layers): Sequential(
    (0): Conv2d(3, 3, kernel_size=(3, 3), stride=(1, 1), padding=same)
    (1): Identity()
    (2): ReLU()
    (3): MaxPool2d(kernel_size=2, stride=2, padding=0, dilation=1, ceil_mode=False)
    (4): Dropout2d(p=0.0, inplace=False)
    (5): Conv2d(3, 3, kernel_size=(3, 3), stride=(1, 1), padding=same)
    (6): Identity()
    (7): ReLU()
    (8): MaxPool2d(kernel_size=2, stride=2, padding=0, dilation=1, ceil_mode=False)
    (9): Dropout2d(p=0.0, inplace=False)
    (10): Conv2d(3, 128, kernel_size=(3, 3), stride=(1, 1), padding=same)
    (11): Identity()
    (12): ReLU()
    (13): MaxPool2d(kernel_size=2, stride=2, padding=0, dilation=1, ceil_mode=False)
    (14): Dropout2d(p=0.0, inplace=False)
    (15): Conv2d(128, 512, kernel_size=(3, 3), stride=(1, 1), padding=same)
    (16): Identity()
    (17): ReLU()
    (18): MaxPool2d(kernel_size=2, stride=2, padding=0, dilation=1, ceil_mode=False)
    (19): Dropout2d(p=0.0, inplace=False)
    (20): Conv2d(512, 512, kernel_size=(3, 3), stride=(1, 1), padding=same)
    (21): Identity()
    (22): ReLU()
    (23): MaxPool2d(kernel_size=2, stride=2, padding=0, dilation=1, ceil_mode=False)
    (24): Dropout2d(p=0.0, inplace=False)
    (25): Conv2d(512, 512, kernel_size=(3, 3), stride=(1, 1), padding=same)
    (26): Identity()
    (27): ReLU()
    (28): MaxPool2d(kernel_size=2, stride=2, padding=0, dilation=1, ceil_mode=False)
    (29): Dropout2d(p=0.0, inplace=False)
    (30): Conv2d(512, 512, kernel_size=(3, 3), stride=(1, 1), padding=same)
    (31): Identity()
    (32): ReLU()
    (33): MaxPool2d(kernel_size=2, stride=2, padding=0, dilation=1, ceil_mode=False)
    (34): Dropout2d(p=0.0, inplace=False)
    (35): Linear(in_features=512, out_features=512, bias=True)
    (36): Linear(in_features=512, out_features=10, bias=True)
  )
)
2024-06-09 09:44:23,396:INFO : ------------ New Training Session ------------
2024-06-09 09:44:23,396:DEBUG : ==> Start Training Epoch 1/10, lr=0.002000 
2024-06-09 09:45:17,126:WARNING : Warning: visualization (Tensorboard) is configured to use, but currently not installed on this machine. Please install TensorboardX with 'pip install tensorboardx', upgrade PyTorch to version >= 1.1 to use 'torch.utils.tensorboard' or turn off the option in the 'config.json' file.
2024-06-09 09:45:42,333:INFO : ConvNet(
  (layers): Sequential(
    (0): Conv2d(3, 128, kernel_size=(3, 3), stride=(1, 1), padding=same)
    (1): Identity()
    (2): ReLU()
    (3): MaxPool2d(kernel_size=2, stride=2, padding=0, dilation=1, ceil_mode=False)
    (4): Dropout2d(p=0.0, inplace=False)
    (5): Conv2d(128, 512, kernel_size=(3, 3), stride=(1, 1), padding=same)
    (6): Identity()
    (7): ReLU()
    (8): MaxPool2d(kernel_size=2, stride=2, padding=0, dilation=1, ceil_mode=False)
    (9): Dropout2d(p=0.0, inplace=False)
    (10): Conv2d(512, 512, kernel_size=(3, 3), stride=(1, 1), padding=same)
    (11): Identity()
    (12): ReLU()
    (13): MaxPool2d(kernel_size=2, stride=2, padding=0, dilation=1, ceil_mode=False)
    (14): Dropout2d(p=0.0, inplace=False)
    (15): Conv2d(512, 512, kernel_size=(3, 3), stride=(1, 1), padding=same)
    (16): Identity()
    (17): ReLU()
    (18): MaxPool2d(kernel_size=2, stride=2, padding=0, dilation=1, ceil_mode=False)
    (19): Dropout2d(p=0.0, inplace=False)
    (20): Conv2d(512, 512, kernel_size=(3, 3), stride=(1, 1), padding=same)
    (21): Identity()
    (22): ReLU()
    (23): MaxPool2d(kernel_size=2, stride=2, padding=0, dilation=1, ceil_mode=False)
    (24): Dropout2d(p=0.0, inplace=False)
    (25): Linear(in_features=512, out_features=512, bias=True)
    (26): Linear(in_features=512, out_features=10, bias=True)
  )
)
2024-06-09 09:45:45,038:INFO : ------------ New Training Session ------------
2024-06-09 09:45:45,039:DEBUG : ==> Start Training Epoch 1/10, lr=0.002000 
2024-06-09 09:46:13,571:ERROR : SEND Error: Host unreachable
2024-06-09 09:47:36,838:WARNING : Warning: visualization (Tensorboard) is configured to use, but currently not installed on this machine. Please install TensorboardX with 'pip install tensorboardx', upgrade PyTorch to version >= 1.1 to use 'torch.utils.tensorboard' or turn off the option in the 'config.json' file.
2024-06-09 09:47:37,202:INFO : ConvNet(
  (layers): Sequential(
    (0): Conv2d(3, 3, kernel_size=(3, 3), stride=(1, 1), padding=same)
    (1): Identity()
    (2): ReLU()
    (3): MaxPool2d(kernel_size=2, stride=2, padding=0, dilation=1, ceil_mode=False)
    (4): Dropout2d(p=0.0, inplace=False)
    (5): Conv2d(3, 128, kernel_size=(3, 3), stride=(1, 1), padding=same)
    (6): Identity()
    (7): ReLU()
    (8): MaxPool2d(kernel_size=2, stride=2, padding=0, dilation=1, ceil_mode=False)
    (9): Dropout2d(p=0.0, inplace=False)
    (10): Conv2d(128, 512, kernel_size=(3, 3), stride=(1, 1), padding=same)
    (11): Identity()
    (12): ReLU()
    (13): MaxPool2d(kernel_size=2, stride=2, padding=0, dilation=1, ceil_mode=False)
    (14): Dropout2d(p=0.0, inplace=False)
    (15): Conv2d(512, 512, kernel_size=(3, 3), stride=(1, 1), padding=same)
    (16): Identity()
    (17): ReLU()
    (18): MaxPool2d(kernel_size=2, stride=2, padding=0, dilation=1, ceil_mode=False)
    (19): Dropout2d(p=0.0, inplace=False)
    (20): Conv2d(512, 512, kernel_size=(3, 3), stride=(1, 1), padding=same)
    (21): Identity()
    (22): ReLU()
    (23): MaxPool2d(kernel_size=2, stride=2, padding=0, dilation=1, ceil_mode=False)
    (24): Dropout2d(p=0.0, inplace=False)
    (25): Conv2d(512, 512, kernel_size=(3, 3), stride=(1, 1), padding=same)
    (26): Identity()
    (27): ReLU()
    (28): MaxPool2d(kernel_size=2, stride=2, padding=0, dilation=1, ceil_mode=False)
    (29): Dropout2d(p=0.0, inplace=False)
    (30): Linear(in_features=512, out_features=512, bias=True)
    (31): Linear(in_features=512, out_features=10, bias=True)
  )
)
2024-06-09 09:47:37,205:INFO : ------------ New Training Session ------------
2024-06-09 09:47:37,205:DEBUG : ==> Start Training Epoch 1/10, lr=0.002000 
2024-06-09 10:06:32,660:WARNING : Warning: visualization (Tensorboard) is configured to use, but currently not installed on this machine. Please install TensorboardX with 'pip install tensorboardx', upgrade PyTorch to version >= 1.1 to use 'torch.utils.tensorboard' or turn off the option in the 'config.json' file.
2024-06-09 10:06:33,029:INFO : ConvNet(
  (layers): Sequential(
    (0): Conv2d(3, 3, kernel_size=(3, 3), stride=(1, 1), padding=same)
    (1): Identity()
    (2): ReLU()
    (3): MaxPool2d(kernel_size=2, stride=2, padding=0, dilation=1, ceil_mode=False)
    (4): Dropout2d(p=0.0, inplace=False)
    (5): Conv2d(3, 3, kernel_size=(3, 3), stride=(1, 1), padding=same)
    (6): Identity()
    (7): ReLU()
    (8): MaxPool2d(kernel_size=2, stride=2, padding=0, dilation=1, ceil_mode=False)
    (9): Dropout2d(p=0.0, inplace=False)
    (10): Conv2d(3, 128, kernel_size=(3, 3), stride=(1, 1), padding=same)
    (11): Identity()
    (12): ReLU()
    (13): MaxPool2d(kernel_size=2, stride=2, padding=0, dilation=1, ceil_mode=False)
    (14): Dropout2d(p=0.0, inplace=False)
    (15): Conv2d(128, 512, kernel_size=(3, 3), stride=(1, 1), padding=same)
    (16): Identity()
    (17): ReLU()
    (18): MaxPool2d(kernel_size=2, stride=2, padding=0, dilation=1, ceil_mode=False)
    (19): Dropout2d(p=0.0, inplace=False)
    (20): Conv2d(512, 512, kernel_size=(3, 3), stride=(1, 1), padding=same)
    (21): Identity()
    (22): ReLU()
    (23): MaxPool2d(kernel_size=2, stride=2, padding=0, dilation=1, ceil_mode=False)
    (24): Dropout2d(p=0.0, inplace=False)
    (25): Conv2d(512, 512, kernel_size=(3, 3), stride=(1, 1), padding=same)
    (26): Identity()
    (27): ReLU()
    (28): MaxPool2d(kernel_size=2, stride=2, padding=0, dilation=1, ceil_mode=False)
    (29): Dropout2d(p=0.0, inplace=False)
    (30): Conv2d(512, 512, kernel_size=(3, 3), stride=(1, 1), padding=same)
    (31): Identity()
    (32): ReLU()
    (33): MaxPool2d(kernel_size=2, stride=2, padding=0, dilation=1, ceil_mode=False)
    (34): Dropout2d(p=0.0, inplace=False)
    (35): Linear(in_features=512, out_features=512, bias=True)
    (36): Linear(in_features=512, out_features=10, bias=True)
  )
)
2024-06-09 10:06:33,036:INFO : ------------ New Training Session ------------
2024-06-09 10:06:33,036:DEBUG : ==> Start Training Epoch 1/10, lr=0.002000 
2024-06-09 10:09:44,221:WARNING : Warning: visualization (Tensorboard) is configured to use, but currently not installed on this machine. Please install TensorboardX with 'pip install tensorboardx', upgrade PyTorch to version >= 1.1 to use 'torch.utils.tensorboard' or turn off the option in the 'config.json' file.
2024-06-09 10:09:47,317:INFO : ConvNet(
  (layers): Sequential(
    (0): Conv2d(3, 128, kernel_size=(3, 3), stride=(1, 1), padding=same)
    (1): Identity()
    (2): ReLU()
    (3): MaxPool2d(kernel_size=2, stride=2, padding=0, dilation=1, ceil_mode=False)
    (4): Dropout2d(p=0.0, inplace=False)
    (5): Conv2d(128, 512, kernel_size=(3, 3), stride=(1, 1), padding=same)
    (6): Identity()
    (7): ReLU()
    (8): MaxPool2d(kernel_size=2, stride=2, padding=0, dilation=1, ceil_mode=False)
    (9): Dropout2d(p=0.0, inplace=False)
    (10): Conv2d(512, 512, kernel_size=(3, 3), stride=(1, 1), padding=same)
    (11): Identity()
    (12): ReLU()
    (13): MaxPool2d(kernel_size=2, stride=2, padding=0, dilation=1, ceil_mode=False)
    (14): Dropout2d(p=0.0, inplace=False)
    (15): Conv2d(512, 512, kernel_size=(3, 3), stride=(1, 1), padding=same)
    (16): Identity()
    (17): ReLU()
    (18): MaxPool2d(kernel_size=2, stride=2, padding=0, dilation=1, ceil_mode=False)
    (19): Dropout2d(p=0.0, inplace=False)
    (20): Conv2d(512, 512, kernel_size=(3, 3), stride=(1, 1), padding=same)
    (21): Identity()
    (22): ReLU()
    (23): MaxPool2d(kernel_size=2, stride=2, padding=0, dilation=1, ceil_mode=False)
    (24): Dropout2d(p=0.0, inplace=False)
    (25): Linear(in_features=512, out_features=512, bias=True)
    (26): Linear(in_features=512, out_features=10, bias=True)
  )
)
2024-06-09 10:09:47,317:INFO : ------------ New Training Session ------------
2024-06-09 10:09:47,317:DEBUG : ==> Start Training Epoch 1/10, lr=0.002000 
2024-06-09 10:11:52,529:WARNING : Warning: visualization (Tensorboard) is configured to use, but currently not installed on this machine. Please install TensorboardX with 'pip install tensorboardx', upgrade PyTorch to version >= 1.1 to use 'torch.utils.tensorboard' or turn off the option in the 'config.json' file.
2024-06-09 10:11:52,894:INFO : ConvNet(
  (layers): Sequential(
    (0): Conv2d(3, 128, kernel_size=(3, 3), stride=(1, 1), padding=same)
    (1): Identity()
    (2): ReLU()
    (3): MaxPool2d(kernel_size=2, stride=2, padding=0, dilation=1, ceil_mode=False)
    (4): Dropout2d(p=0.0, inplace=False)
    (5): Conv2d(128, 512, kernel_size=(3, 3), stride=(1, 1), padding=same)
    (6): Identity()
    (7): ReLU()
    (8): MaxPool2d(kernel_size=2, stride=2, padding=0, dilation=1, ceil_mode=False)
    (9): Dropout2d(p=0.0, inplace=False)
    (10): Conv2d(512, 512, kernel_size=(3, 3), stride=(1, 1), padding=same)
    (11): Identity()
    (12): ReLU()
    (13): MaxPool2d(kernel_size=2, stride=2, padding=0, dilation=1, ceil_mode=False)
    (14): Dropout2d(p=0.0, inplace=False)
    (15): Conv2d(512, 512, kernel_size=(3, 3), stride=(1, 1), padding=same)
    (16): Identity()
    (17): ReLU()
    (18): MaxPool2d(kernel_size=2, stride=2, padding=0, dilation=1, ceil_mode=False)
    (19): Dropout2d(p=0.0, inplace=False)
    (20): Conv2d(512, 512, kernel_size=(3, 3), stride=(1, 1), padding=same)
    (21): Identity()
    (22): ReLU()
    (23): MaxPool2d(kernel_size=2, stride=2, padding=0, dilation=1, ceil_mode=False)
    (24): Dropout2d(p=0.0, inplace=False)
    (25): Linear(in_features=512, out_features=512, bias=True)
    (26): Linear(in_features=512, out_features=10, bias=True)
  )
)
2024-06-09 10:11:52,894:INFO : ------------ New Training Session ------------
2024-06-09 10:11:52,894:DEBUG : ==> Start Training Epoch 1/10, lr=0.002000 
2024-06-09 10:14:34,636:WARNING : Warning: visualization (Tensorboard) is configured to use, but currently not installed on this machine. Please install TensorboardX with 'pip install tensorboardx', upgrade PyTorch to version >= 1.1 to use 'torch.utils.tensorboard' or turn off the option in the 'config.json' file.
2024-06-09 10:14:37,702:INFO : ConvNet(
  (layers): Sequential(
    (0): Conv2d(3, 128, kernel_size=(3, 3), stride=(1, 1), padding=same)
    (1): ReLU()
    (2): MaxPool2d(kernel_size=2, stride=2, padding=0, dilation=1, ceil_mode=False)
    (3): Dropout2d(p=0.0, inplace=False)
    (4): Conv2d(128, 512, kernel_size=(3, 3), stride=(1, 1), padding=same)
    (5): ReLU()
    (6): MaxPool2d(kernel_size=2, stride=2, padding=0, dilation=1, ceil_mode=False)
    (7): Dropout2d(p=0.0, inplace=False)
    (8): Conv2d(512, 512, kernel_size=(3, 3), stride=(1, 1), padding=same)
    (9): ReLU()
    (10): MaxPool2d(kernel_size=2, stride=2, padding=0, dilation=1, ceil_mode=False)
    (11): Dropout2d(p=0.0, inplace=False)
    (12): Conv2d(512, 512, kernel_size=(3, 3), stride=(1, 1), padding=same)
    (13): ReLU()
    (14): MaxPool2d(kernel_size=2, stride=2, padding=0, dilation=1, ceil_mode=False)
    (15): Dropout2d(p=0.0, inplace=False)
    (16): Conv2d(512, 512, kernel_size=(3, 3), stride=(1, 1), padding=same)
    (17): ReLU()
    (18): MaxPool2d(kernel_size=2, stride=2, padding=0, dilation=1, ceil_mode=False)
    (19): Dropout2d(p=0.0, inplace=False)
    (20): Linear(in_features=512, out_features=512, bias=True)
    (21): Linear(in_features=512, out_features=10, bias=True)
  )
)
2024-06-09 10:14:37,702:INFO : ------------ New Training Session ------------
2024-06-09 10:14:37,706:DEBUG : ==> Start Training Epoch 1/10, lr=0.002000 
2024-06-09 10:19:03,532:WARNING : Warning: visualization (Tensorboard) is configured to use, but currently not installed on this machine. Please install TensorboardX with 'pip install tensorboardx', upgrade PyTorch to version >= 1.1 to use 'torch.utils.tensorboard' or turn off the option in the 'config.json' file.
2024-06-09 10:19:06,639:INFO : ConvNet(
  (layers): Sequential(
    (0): Conv2d(3, 128, kernel_size=(3, 3), stride=(1, 1), padding=same)
    (1): ReLU()
    (2): MaxPool2d(kernel_size=2, stride=2, padding=0, dilation=1, ceil_mode=False)
    (3): Dropout2d(p=0.0, inplace=False)
    (4): Conv2d(128, 512, kernel_size=(3, 3), stride=(1, 1), padding=same)
    (5): ReLU()
    (6): MaxPool2d(kernel_size=2, stride=2, padding=0, dilation=1, ceil_mode=False)
    (7): Dropout2d(p=0.0, inplace=False)
    (8): Conv2d(512, 512, kernel_size=(3, 3), stride=(1, 1), padding=same)
    (9): ReLU()
    (10): MaxPool2d(kernel_size=2, stride=2, padding=0, dilation=1, ceil_mode=False)
    (11): Dropout2d(p=0.0, inplace=False)
    (12): Conv2d(512, 512, kernel_size=(3, 3), stride=(1, 1), padding=same)
    (13): ReLU()
    (14): MaxPool2d(kernel_size=2, stride=2, padding=0, dilation=1, ceil_mode=False)
    (15): Dropout2d(p=0.0, inplace=False)
    (16): Conv2d(512, 512, kernel_size=(3, 3), stride=(1, 1), padding=same)
    (17): ReLU()
    (18): MaxPool2d(kernel_size=2, stride=2, padding=0, dilation=1, ceil_mode=False)
    (19): Dropout2d(p=0.0, inplace=False)
    (20): Flatten(start_dim=1, end_dim=-1)
    (21): Linear(in_features=512, out_features=512, bias=True)
    (22): Linear(in_features=512, out_features=10, bias=True)
  )
)
2024-06-09 10:19:06,639:INFO : ------------ New Training Session ------------
2024-06-09 10:19:06,639:DEBUG : ==> Start Training Epoch 1/10, lr=0.002000 
2024-06-09 10:20:09,744:DEBUG : ==> Finished Epoch 1/10.
2024-06-09 10:20:09,744:DEBUG : ++> Evaluate at epoch 1 ...
2024-06-09 10:20:36,805:DEBUG : ++> Finished evaluating epoch 1.
2024-06-09 10:20:36,805:INFO :     epoch: 1.00000
…
2024-06-09 10:33:33,793:INFO : Saving checkpoint: Saved\CIFAR10_CNN\E10_model.pth ...
2024-06-09 10:33:33,845:INFO : Checkpoint saved.
2024-06-09 10:33:33,845:INFO : Saving checkpoint: Saved\CIFAR10_CNN\last_model.pth ...
2024-06-09 10:33:33,883:INFO : Checkpoint saved.
2024-06-09 10:50:59,466:WARNING : Warning: visualization (Tensorboard) is configured to use, but currently not installed on this machine. Please install TensorboardX with 'pip install tensorboardx', upgrade PyTorch to version >= 1.1 to use 'torch.utils.tensorboard' or turn off the option in the 'config.json' file.
2024-06-09 10:51:02,462:INFO : ConvNet(
  (layers): Sequential(
    (0): Conv2d(3, 128, kernel_size=(3, 3), stride=(1, 1), padding=same)
    (1): ReLU()
    (2): MaxPool2d(kernel_size=2, stride=2, padding=0, dilation=1, ceil_mode=False)
    (3): Dropout2d(p=0.0, inplace=False)
    (4): Conv2d(128, 512, kernel_size=(3, 3), stride=(1, 1), padding=same)
    (5): ReLU()
    (6): MaxPool2d(kernel_size=2, stride=2, padding=0, dilation=1, ceil_mode=False)
    (7): Dropout2d(p=0.0, inplace=False)
    (8): Conv2d(512, 512, kernel_size=(3, 3), stride=(1, 1), padding=same)
    (9): ReLU()
    (10): MaxPool2d(kernel_size=2, stride=2, padding=0, dilation=1, ceil_mode=False)
    (11): Dropout2d(p=0.0, inplace=False)
    (12): Conv2d(512, 512, kernel_size=(3, 3), stride=(1, 1), padding=same)
    (13): ReLU()
    (14): MaxPool2d(kernel_size=2, stride=2, padding=0, dilation=1, ceil_mode=False)
    (15): Dropout2d(p=0.0, inplace=False)
    (16): Conv2d(512, 512, kernel_size=(3, 3), stride=(1, 1), padding=same)
    (17): ReLU()
    (18): MaxPool2d(kernel_size=2, stride=2, padding=0, dilation=1, ceil_mode=False)
    (19): Dropout2d(p=0.0, inplace=False)
    (20): Flatten(start_dim=1, end_dim=-1)
    (21): Linear(in_features=1024, out_features=512, bias=True)
    (22): Linear(in_features=512, out_features=10, bias=True)
  )
)
2024-06-09 10:51:02,462:INFO : ------------ New Training Session ------------
2024-06-09 10:51:02,462:DEBUG : ==> Start Training Epoch 1/10, lr=0.002000 
2024-06-09 10:56:51,838:WARNING : Warning: visualization (Tensorboard) is configured to use, but currently not installed on this machine. Please install TensorboardX with 'pip install tensorboardx', upgrade PyTorch to version >= 1.1 to use 'torch.utils.tensorboard' or turn off the option in the 'config.json' file.
2024-06-09 10:56:54,862:INFO : ConvNet(
  (layers): Sequential(
    (0): Conv2d(3, 128, kernel_size=(3, 3), stride=(1, 1), padding=same)
    (1): Identity()
    (2): ReLU()
    (3): MaxPool2d(kernel_size=2, stride=2, padding=0, dilation=1, ceil_mode=False)
    (4): Dropout2d(p=0.0, inplace=False)
    (5): Conv2d(128, 512, kernel_size=(3, 3), stride=(1, 1), padding=same)
    (6): Identity()
    (7): ReLU()
    (8): MaxPool2d(kernel_size=2, stride=2, padding=0, dilation=1, ceil_mode=False)
    (9): Dropout2d(p=0.0, inplace=False)
    (10): Conv2d(512, 512, kernel_size=(3, 3), stride=(1, 1), padding=same)
    (11): Identity()
    (12): ReLU()
    (13): MaxPool2d(kernel_size=2, stride=2, padding=0, dilation=1, ceil_mode=False)
    (14): Dropout2d(p=0.0, inplace=False)
    (15): Conv2d(512, 512, kernel_size=(3, 3), stride=(1, 1), padding=same)
    (16): Identity()
    (17): ReLU()
    (18): MaxPool2d(kernel_size=2, stride=2, padding=0, dilation=1, ceil_mode=False)
    (19): Dropout2d(p=0.0, inplace=False)
    (20): Conv2d(512, 512, kernel_size=(3, 3), stride=(1, 1), padding=same)
    (21): Identity()
    (22): ReLU()
    (23): MaxPool2d(kernel_size=2, stride=2, padding=0, dilation=1, ceil_mode=False)
    (24): Dropout2d(p=0.0, inplace=False)
    (25): Flatten(start_dim=1, end_dim=-1)
    (26): Linear(in_features=512, out_features=512, bias=True)
    (27): Linear(in_features=512, out_features=10, bias=True)
  )
)
2024-06-09 10:56:54,864:INFO : ------------ New Training Session ------------
2024-06-09 10:56:54,864:DEBUG : ==> Start Training Epoch 1/10, lr=0.002000 
2024-06-09 10:58:00,101:DEBUG : ==> Finished Epoch 1/10.
2024-06-09 10:58:00,101:DEBUG : ++> Evaluate at epoch 1 ...
2024-06-09 10:58:28,145:DEBUG : ++> Finished evaluating epoch 1.
2024-06-09 10:58:28,145:INFO :     epoch: 1.00000
…
2024-06-09 11:02:55,879:INFO :     eval_loss: 2.30272
2024-06-09 11:02:55,879:INFO :     eval_top1: 0.09760
2024-06-09 11:02:55,879:INFO :     eval_top5: 0.49980
2024-06-09 11:02:55,879:DEBUG : ==> Start Training Epoch 5/10, lr=0.002000 
2024-06-09 11:11:25,232:WARNING : Warning: visualization (Tensorboard) is configured to use, but currently not installed on this machine. Please install TensorboardX with 'pip install tensorboardx', upgrade PyTorch to version >= 1.1 to use 'torch.utils.tensorboard' or turn off the option in the 'config.json' file.
2024-06-09 11:11:28,293:INFO : ConvNet(
  (layers): Sequential(
    (0): Conv2d(3, 128, kernel_size=(3, 3), stride=(1, 1), padding=same)
    (1): Identity()
    (2): ReLU()
    (3): MaxPool2d(kernel_size=2, stride=2, padding=0, dilation=1, ceil_mode=False)
    (4): Dropout2d(p=0.0, inplace=False)
    (5): Conv2d(128, 512, kernel_size=(3, 3), stride=(1, 1), padding=same)
    (6): Identity()
    (7): ReLU()
    (8): MaxPool2d(kernel_size=2, stride=2, padding=0, dilation=1, ceil_mode=False)
    (9): Dropout2d(p=0.0, inplace=False)
    (10): Conv2d(512, 512, kernel_size=(3, 3), stride=(1, 1), padding=same)
    (11): Identity()
    (12): ReLU()
    (13): MaxPool2d(kernel_size=2, stride=2, padding=0, dilation=1, ceil_mode=False)
    (14): Dropout2d(p=0.0, inplace=False)
    (15): Conv2d(512, 512, kernel_size=(3, 3), stride=(1, 1), padding=same)
    (16): Identity()
    (17): ReLU()
    (18): MaxPool2d(kernel_size=2, stride=2, padding=0, dilation=1, ceil_mode=False)
    (19): Dropout2d(p=0.0, inplace=False)
    (20): Conv2d(512, 512, kernel_size=(3, 3), stride=(1, 1), padding=same)
    (21): Identity()
    (22): ReLU()
    (23): MaxPool2d(kernel_size=2, stride=2, padding=0, dilation=1, ceil_mode=False)
    (24): Dropout2d(p=0.0, inplace=False)
    (25): Flatten(start_dim=1, end_dim=-1)
    (26): Linear(in_features=512, out_features=512, bias=True)
    (27): Linear(in_features=512, out_features=10, bias=True)
  )
)
2024-06-09 11:11:28,293:INFO : ------------ New Training Session ------------
2024-06-09 11:11:28,293:DEBUG : ==> Start Training Epoch 1/10, lr=0.002000 
2024-06-09 11:12:31,245:DEBUG : ==> Finished Epoch 1/10.
2024-06-09 11:12:31,245:DEBUG : ++> Evaluate at epoch 1 ...
2024-06-09 11:12:58,474:DEBUG : ++> Finished evaluating epoch 1.
2024-06-09 11:12:58,474:INFO :     epoch: 1.00000
…
2024-06-09 13:27:23,307:INFO : Loading checkpoint: ./Saved/CIFAR10_CNN/last_model.pth ...
2024-06-09 13:27:23,356:INFO : Checkpoint loaded.
2024-06-09 13:27:23,356:DEBUG : ++> Evaluate at epoch 2 ...
2024-06-09 13:27:39,315:DEBUG : ++> Finished evaluating epoch 2.
2024-06-09 20:09:49,956:WARNING : Warning: visualization (Tensorboard) is configured to use, but currently not installed on this machine. Please install TensorboardX with 'pip install tensorboardx', upgrade PyTorch to version >= 1.1 to use 'torch.utils.tensorboard' or turn off the option in the 'config.json' file.
2024-06-09 20:09:52,045:INFO : ConvNet(
  (layers): Sequential(
    (0): Conv2d(3, 128, kernel_size=(3, 3), stride=(1, 1), padding=same)
    (1): Identity()
    (2): ReLU()
    (3): MaxPool2d(kernel_size=2, stride=2, padding=0, dilation=1, ceil_mode=False)
    (4): Dropout2d(p=0.0, inplace=False)
    (5): Conv2d(128, 512, kernel_size=(3, 3), stride=(1, 1), padding=same)
    (6): Identity()
    (7): ReLU()
    (8): MaxPool2d(kernel_size=2, stride=2, padding=0, dilation=1, ceil_mode=False)
    (9): Dropout2d(p=0.0, inplace=False)
    (10): Conv2d(512, 512, kernel_size=(3, 3), stride=(1, 1), padding=same)
    (11): Identity()
    (12): ReLU()
    (13): MaxPool2d(kernel_size=2, stride=2, padding=0, dilation=1, ceil_mode=False)
    (14): Dropout2d(p=0.0, inplace=False)
    (15): Conv2d(512, 512, kernel_size=(3, 3), stride=(1, 1), padding=same)
    (16): Identity()
    (17): ReLU()
    (18): MaxPool2d(kernel_size=2, stride=2, padding=0, dilation=1, ceil_mode=False)
    (19): Dropout2d(p=0.0, inplace=False)
    (20): Conv2d(512, 512, kernel_size=(3, 3), stride=(1, 1), padding=same)
    (21): Identity()
    (22): ReLU()
    (23): MaxPool2d(kernel_size=2, stride=2, padding=0, dilation=1, ceil_mode=False)
    (24): Dropout2d(p=0.0, inplace=False)
    (25): Flatten(start_dim=1, end_dim=-1)
    (26): Linear(in_features=512, out_features=512, bias=True)
    (27): Linear(in_features=512, out_features=10, bias=True)
  )
)
2024-06-09 20:09:52,045:INFO : ------------ New Training Session ------------
2024-06-09 20:09:52,045:DEBUG : ==> Start Training Epoch 1/50, lr=0.002000 
2024-06-09 20:10:35,757:DEBUG : ==> Finished Epoch 1/50.
2024-06-09 20:10:35,757:DEBUG : ++> Evaluate at epoch 1 ...
2024-06-09 20:10:52,549:DEBUG : ++> Finished evaluating epoch 1.
2024-06-09 20:19:29,665:WARNING : Warning: visualization (Tensorboard) is configured to use, but currently not installed on this machine. Please install TensorboardX with 'pip install tensorboardx', upgrade PyTorch to version >= 1.1 to use 'torch.utils.tensorboard' or turn off the option in the 'config.json' file.
2024-06-09 20:19:31,714:INFO : ConvNet(
  (layers): Sequential(
    (0): Conv2d(3, 128, kernel_size=(3, 3), stride=(1, 1), padding=same)
    (1): Identity()
    (2): ReLU()
    (3): MaxPool2d(kernel_size=2, stride=2, padding=0, dilation=1, ceil_mode=False)
    (4): Dropout2d(p=0.0, inplace=False)
    (5): Conv2d(128, 512, kernel_size=(3, 3), stride=(1, 1), padding=same)
    (6): Identity()
    (7): ReLU()
    (8): MaxPool2d(kernel_size=2, stride=2, padding=0, dilation=1, ceil_mode=False)
    (9): Dropout2d(p=0.0, inplace=False)
    (10): Conv2d(512, 512, kernel_size=(3, 3), stride=(1, 1), padding=same)
    (11): Identity()
    (12): ReLU()
    (13): MaxPool2d(kernel_size=2, stride=2, padding=0, dilation=1, ceil_mode=False)
    (14): Dropout2d(p=0.0, inplace=False)
    (15): Conv2d(512, 512, kernel_size=(3, 3), stride=(1, 1), padding=same)
    (16): Identity()
    (17): ReLU()
    (18): MaxPool2d(kernel_size=2, stride=2, padding=0, dilation=1, ceil_mode=False)
    (19): Dropout2d(p=0.0, inplace=False)
    (20): Conv2d(512, 512, kernel_size=(3, 3), stride=(1, 1), padding=same)
    (21): Identity()
    (22): ReLU()
    (23): MaxPool2d(kernel_size=2, stride=2, padding=0, dilation=1, ceil_mode=False)
    (24): Dropout2d(p=0.0, inplace=False)
    (25): Flatten(start_dim=1, end_dim=-1)
    (26): Linear(in_features=512, out_features=512, bias=True)
    (27): Linear(in_features=512, out_features=10, bias=True)
  )
)
2024-06-09 20:19:31,714:INFO : ------------ New Training Session ------------
2024-06-09 20:19:31,714:DEBUG : ==> Start Training Epoch 1/50, lr=0.002000 
2024-06-09 20:20:14,944:DEBUG : ==> Finished Epoch 1/50.
2024-06-09 20:20:14,944:DEBUG : ++> Evaluate at epoch 1 ...
2024-06-09 20:20:32,010:DEBUG : ++> Finished evaluating epoch 1.
2024-06-09 20:21:38,020:WARNING : Warning: visualization (Tensorboard) is configured to use, but currently not installed on this machine. Please install TensorboardX with 'pip install tensorboardx', upgrade PyTorch to version >= 1.1 to use 'torch.utils.tensorboard' or turn off the option in the 'config.json' file.
2024-06-09 20:21:40,081:INFO : ConvNet(
  (layers): Sequential(
    (0): Conv2d(3, 128, kernel_size=(3, 3), stride=(1, 1), padding=same)
    (1): Identity()
    (2): ReLU()
    (3): MaxPool2d(kernel_size=2, stride=2, padding=0, dilation=1, ceil_mode=False)
    (4): Dropout2d(p=0.0, inplace=False)
    (5): Conv2d(128, 512, kernel_size=(3, 3), stride=(1, 1), padding=same)
    (6): Identity()
    (7): ReLU()
    (8): MaxPool2d(kernel_size=2, stride=2, padding=0, dilation=1, ceil_mode=False)
    (9): Dropout2d(p=0.0, inplace=False)
    (10): Conv2d(512, 512, kernel_size=(3, 3), stride=(1, 1), padding=same)
    (11): Identity()
    (12): ReLU()
    (13): MaxPool2d(kernel_size=2, stride=2, padding=0, dilation=1, ceil_mode=False)
    (14): Dropout2d(p=0.0, inplace=False)
    (15): Conv2d(512, 512, kernel_size=(3, 3), stride=(1, 1), padding=same)
    (16): Identity()
    (17): ReLU()
    (18): MaxPool2d(kernel_size=2, stride=2, padding=0, dilation=1, ceil_mode=False)
    (19): Dropout2d(p=0.0, inplace=False)
    (20): Conv2d(512, 512, kernel_size=(3, 3), stride=(1, 1), padding=same)
    (21): Identity()
    (22): ReLU()
    (23): MaxPool2d(kernel_size=2, stride=2, padding=0, dilation=1, ceil_mode=False)
    (24): Dropout2d(p=0.0, inplace=False)
    (25): Flatten(start_dim=1, end_dim=-1)
    (26): Linear(in_features=512, out_features=512, bias=True)
    (27): Linear(in_features=512, out_features=10, bias=True)
  )
)
2024-06-09 20:21:40,081:INFO : ------------ New Training Session ------------
2024-06-09 20:21:40,081:DEBUG : ==> Start Training Epoch 1/50, lr=0.002000 
2024-06-09 20:22:22,897:DEBUG : ==> Finished Epoch 1/50.
2024-06-09 20:22:22,897:DEBUG : ++> Evaluate at epoch 1 ...
2024-06-09 20:22:40,887:DEBUG : ++> Finished evaluating epoch 1.
2024-06-09 20:22:40,887:INFO : Saving checkpoint: Saved\CIFAR10_CNN\best_val_model.pth ...
…
